_unittests/ut_helpers/data/test_sbs_mha_split_every_piece.onnx (onnx, 10481 bytes, 3 tensors)

W_q.bias f4 [16]
000000 40 42 72 3c 50 c1 f7 bc 08 b5 ed 3d a8 ad 75 3d
       0.014786303 -0.030243546 0.116067946 0.059980065
000010 20 b9 9b bd 86 60 49 3e 48 27 37 3d a4 4b db bd
       -0.07603669 0.19665727 0.044715196 -0.10707787
000020 68 a0 37 3e 6e 5b 07 3e 54 dc 80 3d b4 af 41 3e
       0.17932284 0.13218471 0.06292024 0.18914682
000030 54 aa 2f be f6 81 3a 3e e8 59 1c be 1e ef 57 3e
       -0.17154819 0.18213639 -0.15268672 0.2108731

W_k.bias f4 [16]
000000 ac 81 0e be 80 4c 19 bd 38 4a 79 bd 70 3b 1a 3d
       -0.13916653 -0.03742647 -0.060861796 0.03765434
000010 18 7c 0c 3e 04 05 9a bd 0c 91 3b be e0 c2 8d bd
       0.13719213 -0.07520488 -0.1831705 -0.06921935
000020 c6 b3 7a be de a0 12 be 28 05 72 bd ba dc 59 be
       -0.2448264 -0.14319178 -0.05908695 -0.21275607
000030 c2 f4 41 be b0 7f f3 3c 20 61 35 be d6 57 79 3e
       -0.18941024 0.029723972 -0.17712831 0.24349913

W_v.bias f4 [16]
000000 0e 21 53 be a0 a1 09 be 64 35 07 be 00 64 6c 3a
       -0.20618078 -0.13440561 -0.1320396 0.00090175867
000010 aa 02 6a be 92 ea 20 be d4 0d 3a 3e 7a e7 64 3e
       -0.22852579 -0.15714481 0.18169338 0.22353926
000020 bc 58 06 3e 70 de 0b be 80 28 89 3c d0 b7 8f 3c
       0.13119787 -0.13659072 0.016742945 0.017543703
000030 20 25 d7 bc d8 43 9e 3d 66 3e 28 be ac fc 98 3d
       -0.02626282 0.07727784 -0.16430053 0.07470068
